arduino_code/CNN1D_compact_model.tflite (tflite, 12032 bytes, 4 tensors)

tfl.pseudo_qconst1 i1 [5, 32]
000000 ca 95 ab 25 cb 0b d6 2d 41 45 df 5f 9c 42 22 a4
       -54 -107 -85 37 -53 11 -42 45 65 69 -33 95 -100 66 34 -92
000010 e7 1e fb e4 a9 5c 61 81 5b cf 56 60 42 b2 ab f0
       -25 30 -5 -28 -87 92 97 -127 91 -49 86 96 66 -78 -85 -16
000020 54 1a 16 f8 37 a1 4b 40 01 0d 25 b6 90 af 41 ce
       84 26 22 -8 55 -95 75 64 1 13 37 -74 -112 -81 65 -50
000030 bc db b4 df 17 be f8 81 d6 53 39 42 17 15 2b 4b
       -68 -37 -76 -33 23 -66 -8 -127 -42 83 57 66 23 21 43 75
000040 f4 c8 0c 31 2a fb bf 04 ef 11 5d da 49 f4 cb b4
       -12 -56 12 49 42 -5 -65 4 -17 17 93 -38 73 -12 -53 -76
000050 51 f2 36 b6 81 22 21 41 f4 05 f9 51 5a ea 08 c2
       81 -14 54 -74 -127 34 33 65 -12 5 -7 81 90 -22 8 -62
000060 1d 44 4f a6 ab 54 d0 12 bf f0 3c d8 21 38 cf 36
       29 68 79 -90 -85 84 -48 18 -65 -16 60 -40 33 56 -49 54
000070 1a ca 7f 66 0b 5b d6 02 08 95 f3 9a 49 5f b0 5e
       26 -54 127 102 11 91 -42 2 8 -107 -13 -102 73 95 -80 94
000080 63 38 d3 37 b3 98 a7 f5 81 cf 52 0b 13 00 3b 26
       99 56 -45 55 -77 -104 -89 -11 -127 -49 82 11 19 0 59 38
000090 31 0e bd 56 26 2d 15 3c cd ef c5 95 0e dd 2b 10
       49 14 -67 86 38 45 21 60 -51 -17 -59 -107 14 -35 43 16

tfl.pseudo_qconst3 i1 [32, 32]
000000 f4 7e bc 64 54 8b c9 50 d1 c6 0a d7 b2 9d 10 4e
       -12 126 -68 100 84 -117 -55 80 -47 -58 10 -41 -78 -99 16 78
000010 29 9c 35 7f 31 f0 d2 e2 26 23 f3 9b 5d 49 3e 14
       41 -100 53 127 49 -16 -46 -30 38 35 -13 -101 93 73 62 20
000020 e0 43 79 36 00 f1 a3 58 0f 75 30 e1 2b d6 ed 40
       -32 67 121 54 0 -15 -93 88 15 117 48 -31 43 -42 -19 64
000030 12 ad d6 48 11 56 9c 59 21 03 d0 08 7f c1 d1 ac
       18 -83 -42 72 17 86 -100 89 33 3 -48 8 127 -63 -47 -84
000040 5d 83 4a d7 ce 1b ca 45 4a 7f 15 64 9b e6 9d 74
       93 -125 74 -41 -50 27 -54 69 74 127 21 100 -101 -26 -99 116
000050 73 87 02 d8 2a 6c d4 3d 18 9b 13 38 92 3f 2a 38
       115 -121 2 -40 42 108 -44 61 24 -101 19 56 -110 63 42 56
000060 e6 7d c6 44 d5 e5 d0 c1 a6 58 a7 27 10 b6 07 1a
       -26 125 -58 68 -43 -27 -48 -63 -90 88 -89 39 16 -74 7 26
000070 c5 47 11 aa a7 13 fc f2 25 95 5d 58 12 cb 7f a6
       -59 71 17 -86 -89 19 -4 -14 37 -107 93 88 18 -53 127 -90
000080 ce 2a e0 15 0c 44 49 28 9b dc b3 74 dd 04 7f 6b
       -50 42 -32 21 12 68 73 40 -101 -36 -77 116 -35 4 127 107
000090 9b 09 e0 35 42 fd 0d 1a a8 2c 30 bb ac 1a 6a cb
       -101 9 -32 53 66 -3 13 26 -88 44 48 -69 -84 26 106 -53
0000a0 03 ae 7f 0d 24 5d e9 d0 a9 42 7b d6 3d 2f fe 3e
       3 -82 127 13 36 93 -23 -48 -87 66 123 -42 61 47 -2 62
0000b0 68 b6 f6 1a 19 cd 55 d8 e2 fa d3 14 4b d5 ba 32
       104 -74 -10 26 25 -51 85 -40 -30 -6 -45 20 75 -43 -70 50
0000c0 90 69 ad 39 ef 1c 81 54 01 92 04 15 b0 d2 b1 10
       -112 105 -83 57 -17 28 -127 84 1 -110 4 21 -80 -46 -79 16
0000d0 f1 15 cc ce f8 4e 1e 13 81 54 38 59 dc 71 38 42
       -15 21 -52 -50 -8 78 30 19 -127 84 56 89 -36 113 56 66
0000e0 86 6c e8 00 d9 5b f1 43 53 81 44 3e ec fb f5 0d
       -122 108 -24 0 -39 91 -15 67 83 -127 68 62 -20 -5 -11 13
0000f0 67 ed e3 23 11 bb 51 be a7 e2 ff 3c 17 7d cc fc
       103 -19 -29 35 17 -69 81 -66 -89 -30 -1 60 23 125 -52 -4

tfl.pseudo_qconst5 i1 [32, 1, 3, 16]
000000 eb 36 16 d0 10 fe 68 fc ec 2c b1 04 39 a5 ca f3
       -21 54 22 -48 16 -2 104 -4 -20 44 -79 4 57 -91 -54 -13
000010 c1 7f 4a d5 20 17 e3 37 16 49 9f 77 41 94 1d dd
       -63 127 74 -43 32 23 -29 55 22 73 -97 119 65 -108 29 -35
000020 04 6a 65 05 13 da 43 d9 45 ce fe 0e 1d f5 ad 52
       4 106 101 5 19 -38 67 -39 69 -50 -2 14 29 -11 -83 82
000030 c2 2e cf 3c df cd 2f 67 3b f3 64 a1 7f 35 71 c0
       -62 46 -49 60 -33 -51 47 103 59 -13 100 -95 127 53 113 -64
000040 0c d3 d8 17 13 ff 5c 64 3c a7 36 c2 19 d2 fb fb
       12 -45 -40 23 19 -1 92 100 60 -89 54 -62 25 -46 -5 -5
000050 c0 27 f5 53 36 cd 33 20 1d e5 79 ef 21 fc 77 c9
       -64 39 -11 83 54 -51 51 32 29 -27 121 -17 33 -4 119 -55
000060 0b 7b f8 e8 d0 c2 2f de d3 9f d2 f8 08 1d 3b 1e
       11 123 -8 -24 -48 -62 47 -34 -45 -97 -46 -8 8 29 59 30
000070 fc 58 dd eb 3c 8c 2a 0d ed dd 0a 81 2c b9 fd 05
       -4 88 -35 -21 60 -116 42 13 -19 -35 10 -127 44 -71 -3 5
000080 b3 43 dc 04 4a ab 0c d6 2a fe bc 44 f8 d0 0f 1c
       -77 67 -36 4 74 -85 12 -42 42 -2 -68 68 -8 -48 15 28
000090 30 85 de ef 5c 64 2a 62 7a e2 2b e5 a7 2c f7 a0
       48 -123 -34 -17 92 100 42 98 122 -30 43 -27 -89 44 -9 -96
0000a0 ce 0e e9 c7 e3 f8 24 58 52 f2 ce 1c db a7 5d f3
       -50 14 -23 -57 -29 -8 36 88 82 -14 -50 28 -37 -89 93 -13
0000b0 02 81 1e 3e ef 43 f1 3d 6f 05 13 d6 2d 43 05 3b
       2 -127 30 62 -17 67 -15 61 111 5 19 -42 45 67 5 59
0000c0 29 35 2a f4 b6 46 3f 05 b7 3e 42 cb 2a 63 ee b3
       41 53 42 -12 -74 70 63 5 -73 62 66 -53 42 99 -18 -77
0000d0 4e 3b 4b 6b 0e 4a d5 23 ac d7 0d 23 0a 6a 10 11
       78 59 75 107 14 74 -43 35 -84 -41 13 35 10 106 16 17
0000e0 fa 66 4c ea 18 13 24 03 9c f7 7f 14 5e 6a 2c 18
       -6 102 76 -22 24 19 36 3 -100 -9 127 20 94 106 44 24
0000f0 59 06 40 02 c9 3b b6 c5 c4 14 5c 35 f8 43 ef 30
       89 6 64 2 -55 59 -74 -59 -60 20 92 53 -8 67 -17 48

tfl.pseudo_qconst7 i1 [16, 1, 5, 3]
000000 43 e8 46 7f 1a 1e 42 1f d8 33 27 33 63 d1 37 d1
       67 -24 70 127 26 30 66 31 -40 51 39 51 99 -47 55 -47
000010 5c 46 f4 7f 29 84 6e 53 15 5f e9 85 40 6c 37 87
       92 70 -12 127 41 -124 110 83 21 95 -23 -123 64 108 55 -121
000020 90 2d 8f da d7 12 24 29 a6 c8 ea 81 b6 cf 1e b4
       -112 45 -113 -38 -41 18 36 41 -90 -56 -22 -127 -74 -49 30 -76
000030 b6 ef d0 25 7f a0 f3 64 bf 96 49 fd d2 1f 0c a0
       -74 -17 -48 37 127 -96 -13 100 -65 -106 73 -3 -46 31 12 -96
000040 cf 16 d9 9f 38 81 e1 ea ef f7 21 81 cd 40 9f 12
       -49 22 -39 -97 56 -127 -31 -22 -17 -9 33 -127 -51 64 -97 18
000050 d5 8a fa 21 c6 3f a1 d1 1b e2 c9 f2 1b ac 3b 6b
       -43 -118 -6 33 -58 63 -95 -47 27 -30 -55 -14 27 -84 59 107
000060 f7 f9 7f 98 16 25 93 3d 46 c6 a4 51 a7 b2 76 26
       -9 -7 127 -104 22 37 -109 61 70 -58 -92 81 -89 -78 118 38
000070 dd 36 9f e2 50 81 88 37 88 fc 2e 81 b9 2f a3 f5
       -35 54 -97 -30 80 -127 -120 55 -120 -4 46 -127 -71 47 -93 -11
000080 19 cb bc 36 e2 91 16 81 e1 e5 cc 1e ce 05 d2 c1
       25 -53 -68 54 -30 -111 22 -127 -31 -27 -52 30 -50 5 -46 -63
000090 ab 82 81 81 84 f9 06 7f c5 c4 1a d4 d3 05 d2 30
       -85 -126 -127 -127 -124 -7 6 127 -59 -60 26 -44 -45 5 -46 48
0000a0 31 c7 e8 4a 01 b5 a8 1c 27 8b 91 c1 a2 ff 0a 9f
       49 -57 -24 74 1 -75 -88 28 39 -117 -111 -63 -94 -1 10 -97
0000b0 b7 12 81 aa e3 d3 e3 73 f9 95 de 42 ee e9 23 81
       -73 18 -127 -86 -29 -45 -29 115 -7 -107 -34 66 -18 -23 35 -127
0000c0 45 9b 81 62 ef 4a 62 e1 5a 7f 11 21 13 98 cf 49
       69 -101 -127 98 -17 74 98 -31 90 127 17 33 19 -104 -49 73
0000d0 e1 16 0a 7f 91 e0 e9 1e c1 35 de 2c 44 cf f9 4f
       -31 22 10 127 -111 -32 -23 30 -63 53 -34 44 68 -49 -7 79
0000e0 9b fb cb 05 31 02 e9 36 67 54 73 7f 28 66 30 2f
       -101 -5 -53 5 49 2 -23 54 103 84 115 127 40 102 48 47
