arduino_code/CNN1D_model.tflite (tflite, 743088 bytes, 18 tensors)

arith.constant f4 [64]
000000 79 d5 8e 3b bd 68 b9 3c 53 27 eb 3a 8d e7 b9 3c
       0.004358944 0.02263295 0.0017940797 0.02269342
000010 f8 ee a0 3c f5 80 42 3c ae 7b df 3a 0b 5c 1a 3c
       0.0196452 0.011871566 0.0017050409 0.009421359
000020 db 4d 82 3c 17 a8 69 3b 64 8a 3a 3c f1 60 33 3b
       0.015906265 0.0035653168 0.011385534 0.0027371014
000030 9e 77 f7 3a 36 0e d2 3b 81 0d 47 3c 08 da 0f bc
       0.0018880253 0.0064103855 0.012149216 -0.00878001
000040 84 07 55 3c 45 82 b4 bb c6 d7 81 3c 1b e7 0b bc
       0.01300228 -0.0055086934 0.01584996 -0.008538987
000050 84 de c5 3b b0 f2 23 3b c1 10 06 bc 3b 5b a2 3a
       0.006038489 0.002501648 -0.008182705 0.0012386808
000060 a3 78 41 3c 94 6e f3 bc 96 29 db 3b 07 0b 24 3a
       0.011808547 -0.029715814 0.006688307 0.0006257747
000070 1a b1 90 bc eb 5b 0a 3b f9 f8 82 3c e7 22 47 3b
       -0.017662574 0.0021111916 0.01598786 0.0030385794
000080 ea d0 ad 3c 15 71 95 3c 52 f0 16 3b 89 4e 78 3c
       0.021217782 0.018242398 0.0023031426 0.015155443
000090 20 cd 7b bb 8c 36 93 b9 12 c8 2f 3c e4 b0 87 3a
       -0.0038421825 -0.00028078665 0.010728853 0.00103524
0000a0 be 1c 5f 3b f1 6c c6 3a 62 2e 9c 3c de d2 7b 3c
       0.0034044231 0.0015138668 0.019065086 0.015370099
0000b0 c3 ae 08 bc 2f 9a 8d 3b 45 f3 ab 3c e9 08 5b bb
       -0.008342448 0.0043213586 0.020990023 -0.003342206
0000c0 6a b0 0b 3c c4 d6 fd 3b 6f fb b6 3b 96 a3 88 3c
       0.008525947 0.0077465493 0.0055841724 0.016679566
0000d0 a7 59 9c bc 2a de 71 3c e3 a2 8d 3b 68 5d dd 3c
       -0.019085718 0.014762441 0.004322396 0.027022079
0000e0 af c3 96 3c 6a e7 e9 3b a1 9b d8 ba eb a1 e4 3c
       0.018403856 0.0071381824 -0.0016525873 0.02790924
0000f0 07 a5 7a 3c 40 04 4b bb 6c 34 5a bc 64 ab 1e bc
       0.015298135 -0.0030977875 -0.013318162 -0.009684417

arith.constant1 f4 [128]
000000 3c 29 18 3c a4 e1 63 3c 44 29 65 ba f6 34 3a 3b
       0.009287175 0.013908777 -0.0008741806 0.0028412915
000010 2d 4d e4 3b 35 e8 36 3c f1 fa 9e 3b 2d 0a 48 b9
       0.006967208 0.011163761 0.004851692 -0.00019077277
000020 aa f2 15 3c 28 cc 5e bc f8 42 c2 3b 33 03 be 3b
       0.009152094 -0.013598479 0.0059283935 0.005798721
000030 03 de a4 3a a6 42 02 bc 8e 82 c5 ba 88 6c 1b bb
       0.0012578372 -0.007950461 -0.0015068816 -0.0023715813
000040 ea 2a 23 3c 2e 8d ac 3a e8 6c 26 3c 73 d3 f5 3b
       0.009958962 0.0013164633 0.010157801 0.0075020134
000050 6d 20 08 3c 3b 0f ae 3a 4c 07 b3 3c fb bd 44 3a
       0.008308512 0.0013279686 0.021854065 0.0007505116
000060 b6 10 84 3c 3b d6 48 3c c1 9b a7 3b cf e6 1f bc
       0.01612125 0.012258108 0.005115003 -0.009759619
000070 14 75 80 3c 3e c0 fd ba 2a 88 0c 3c b1 77 05 3b
       0.015680827 -0.0019359661 0.008577386 0.002036553
000080 d4 e4 8c bb 45 55 02 bc eb 91 6e bb d7 75 c9 3b
       -0.0042997394 -0.0079549 -0.0036402892 0.006148081
000090 c8 32 a7 3c 62 d0 7c bc d9 35 b0 bc 41 10 d2 bb
       0.020409957 -0.015430542 -0.021510052 -0.006410629
0000a0 3a 23 ee ba 8e c4 38 3c 4b 8f aa 3c 36 dd 45 3b
       -0.0018168457 0.011277331 0.02082028 0.0030191666
0000b0 0c a4 95 3b 72 9a 0b 3d ee 5a 89 3b 30 4f 55 3c
       0.004566675 0.034082837 0.004191748 0.013019368
0000c0 74 47 6c 3c 95 99 06 3c f5 93 3a bb 22 d6 c7 3c
       0.014421333 0.008215328 -0.0028469537 0.024394099
0000d0 f7 25 37 bc 40 9a f6 3b 65 fd c2 3c c7 fd e6 3b
       -0.011178485 0.0075257123 0.023802469 0.0070492956
0000e0 df 26 14 3c be 31 ba 3b 5a 8b 43 3c 59 99 b4 3c
       0.009042471 0.0056821993 0.0119350795 0.022045778
0000f0 42 b7 c8 3c 8d a2 02 3c 89 6b cb 3b 68 c8 62 3c
       0.024501447 0.007973325 0.0062078875 0.013841726
000100 31 5f 95 ba 2f e8 74 3b c2 e4 d7 3c 0c 93 21 bc
       -0.0011396167 0.0037369838 0.026354197 -0.009861719
000110 a0 e1 5d bb 66 7b 62 bb 46 30 05 3c 89 d1 f9 bb
       -0.0033856407 -0.0034558414 0.008129185 -0.0076238555
000120 be d9 23 3c 42 9d 1d 3c fb 82 f9 3b 5d 76 17 3c
       0.010000644 0.009620013 0.007614491 0.009244529
000130 01 aa 4f 3c 83 02 93 bc f0 13 83 bc 6e da d4 3b
       0.012674809 -0.017945534 -0.016000718 0.0064957654
000140 2e ea 91 b9 23 44 c3 3a a1 72 b6 3c 75 2e 26 3b
       -0.00027831033 0.0014897626 0.022271456 0.002535728
000150 45 01 09 3c 8b 91 60 3c eb e2 a9 3b 70 07 33 3c
       0.008362119 0.013706575 0.0051845214 0.010927066
000160 58 af e0 3c c9 c3 f5 3b 61 24 26 3c c8 0a 57 3c
       0.02742736 0.007500146 0.010140509 0.013125129
000170 86 62 09 bc e5 5b c6 3c bf 23 ca 3c df 30 27 3c
       -0.008385306 0.02421374 0.024675248 0.010204523
000180 f5 c5 73 bc 19 fd 3d 3d 35 35 00 3d c0 77 9d bc
       -0.01487874 0.04638395 0.031300742 -0.01922214
000190 2e ab 8e ba 02 28 3f 3b c1 81 47 3c 28 2b 1e bc
       -0.0010884756 0.0029168134 0.012176932 -0.009653844
0001a0 a5 a9 2e bc 69 85 82 3c a0 54 c6 3b 44 de 28 bc
       -0.010660564 0.015932756 0.0060525686 -0.0103068985
0001b0 50 8d 8d 3c dc 30 89 3c 93 b6 89 3c 16 99 72 3c
       0.017279297 0.01674693 0.016810691 0.014807006
0001c0 d9 79 bf 3c a6 da 9d 3b 27 13 15 3c 56 05 5c bb
       0.023373531 0.0048173247 0.009098805 -0.0033572516
0001d0 0a 05 21 3c b3 b9 24 bd ca 3a b8 3b 60 8e 48 3c
       0.009827862 -0.04021616 0.0056222426 0.012240976
0001e0 12 27 d6 39 14 f7 8a 3c c0 e1 8f 3b e4 23 9c bb
       0.0004084637 0.01696352 0.004390925 -0.0047650207
0001f0 6d 6c b7 3b c5 95 8c 3c cd d9 3d 3a 8c e0 9a 3c
       0.005597642 0.01716126 0.00072422327 0.0189059

arith.constant2 f4 [256]
000000 fa 4e 1b b9 76 ac 55 39 c2 80 8c bc 44 1f f3 bb
       -0.00014811373 0.0002037751 -0.01715124 -0.0074194986
000010 2f 9d bb bb e0 3a 05 bc 54 5a d8 3c 78 bf b0 bb
       -0.005725525 -0.008131713 0.02641026 -0.0053939186
000020 ab 5b a0 bc a3 69 43 3c d6 8c 2a 3b 65 a9 24 3a
       -0.01957496 0.011927041 0.0026023886 0.0006281345
000030 1a e4 7f 3a 5f 0c 72 3c a4 3f 44 bb fb 7d 95 ba
       0.0009761468 0.014773457 -0.002994516 -0.0011405343
000040 6f 74 80 bc 1a 45 33 3d 66 2a d8 bc a4 97 b2 3c
       -0.01568052 0.043767072 -0.026387405 0.021800824
000050 49 ed 8b bb 67 5d 71 bc 5d ea 85 ba 16 56 31 3b
       -0.00427023 -0.0147317415 -0.001021694 0.0027059368
000060 6f 85 a4 bb d2 18 f0 3c 31 22 29 bb 96 c8 87 bc
       -0.0050207893 0.02930871 -0.0025807733 -0.016575139
000070 1e c8 8e bb 99 a4 94 bc 8a 95 e3 bc 84 c2 46 ba
       -0.004357352 -0.018144893 -0.027781267 -0.00075820857
000080 dc ee 48 3c d8 56 6c bc da 5b 18 3d ec 5e be bc
       0.01226398 -0.014425002 0.03719697 -0.023238622
000090 0d 9e b8 3c d3 e5 d0 3a f8 32 8d 3c 8c 5b 13 bc
       0.022536302 0.0015937634 0.017236218 -0.008993994
0000a0 dc 30 27 3b 17 e1 98 bc 2b 7d 31 3c 6d 4b 3f bc
       0.00255113 -0.018662019 0.010833065 -0.011675698
0000b0 65 64 e1 bb 2c 6a 08 3d 51 c3 06 3c d4 23 b6 bb
       -0.006878423 0.03330438 0.008225278 -0.0055584703
0000c0 7a 98 c8 3a a4 1f b8 3c 7f e1 bd bb b7 6a a4 bb
       0.0015304231 0.022476025 -0.0057947035 -0.005017604
0000d0 17 1f 0a 3c 75 f9 86 3c ae 9e 45 ba d5 3d ec bb
       0.008430264 0.016476372 -0.0007538599 -0.0072095194
0000e0 f3 06 be 3b 9d 47 f8 bb 5b f6 cf 3b 69 5e 3f 3c
       0.0057991683 -0.0075768963 0.0063465065 0.011680224
0000f0 bf 43 f8 3b 3f 2d 0d bb ed a6 71 3c 7f 4e 6e 3c
       0.0075764353 -0.0021541861 0.014749271 0.014545082
000100 4d f4 82 bc 11 36 e5 3c 57 b6 00 3d af 0f 59 bb
       -0.015985632 0.027979882 0.031423893 -0.003312092
000110 37 c1 0d 3c c1 81 b6 3c 12 46 7a ba c0 8e b2 bb
       0.008652023 0.022278668 -0.00095471845 -0.005449146
000120 e6 16 60 3c 0b 9f 9f ba de ee 0e bb 19 33 1d bc
       0.013677334 -0.0012178136 -0.0021809856 -0.009594702
000130 45 5a 5e 3c ec a3 b2 ba c7 74 82 3c ce 95 06 bd
       0.013571327 -0.0013629175 0.015924824 -0.03285771
000140 98 9c ae 3c 7d 4e 68 3c 5f 22 4c 3b 5c 58 72 3c
       0.021314904 0.014178869 0.0031148416 0.014791574
000150 83 0e 10 bc ef ee eb bb 48 6d f5 38 b0 3c de bc
       -0.008792522 -0.007200114 0.000117028656 -0.027128547
000160 7c 5b 06 3d 60 02 e8 39 2e b9 45 3b dd bb 1f 3b
       0.03280209 0.00044252258 0.003017019 0.002437345
000170 58 43 0c 3c bc 9b 43 bb 7d f4 2c 3c 19 c4 1c bc
       0.008560978 -0.0029847464 0.010556337 -0.009568238
000180 f9 b9 d0 bc 8f 27 86 bb 4f 5c 31 3a 82 96 06 bc
       -0.025479304 -0.004094071 0.0006765769 -0.008214595
000190 75 8e 26 3c 80 df 02 bc 78 7d a9 bb 65 23 21 3c
       0.0101658 -0.007987857 -0.0051724277 0.009835099
0001a0 ff 22 68 bc 90 36 34 3c 4c 59 b7 3b 0b e0 71 3b
       -0.0141685 0.010999337 0.005595362 0.0036907222
0001b0 6c 97 c6 3b b7 75 7b bc d7 6e 61 3c 04 6c 21 bc
       0.0060605314 -0.01534789 0.013759336 -0.009852413
0001c0 22 19 bb 3c a4 ce 44 3c 7b 13 c0 b9 fc 5e 9a bb
       0.022839133 0.012012158 -0.00036635608 -0.00471103
0001d0 7e 29 03 bd 81 20 80 bc 4c 31 36 3c 33 a9 61 bc
       -0.032021992 -0.0156405 0.011120152 -0.01377325
0001e0 6f 2c 07 bc 5b 35 17 3d 30 14 e0 3a 71 4c 2a bd
       -0.00825034 0.036916118 0.001709586 -0.041576806
0001f0 75 16 cd bb 6b 7c b2 bb b3 b8 af 3c e8 48 55 bc
       -0.0062587806 -0.0054469607 0.021450376 -0.0130178705
000200 e4 e6 2b 3b 30 b3 39 3a 0d 2e ba 3b 8e 13 23 3c
       0.002623015 0.0007083891 0.005681759 0.009953393
000210 1a ce db bb c3 b2 e7 3c 1e a0 4c 3a 18 ef 4f 3a
       -0.006707919 0.028283482 0.0007805842 0.0007932051
000220 66 dc 23 bc ee 36 18 bd 8a f9 6e 3b 28 d1 7a 3c
       -0.010001278 -0.03716176 0.0036464655 0.015308656
000230 27 a9 0d 3c 92 38 6c bc 43 ed 0c bd 61 5e f0 3b
       0.008646286 -0.014417784 -0.034405958 0.0073354696
000240 29 13 a0 bb 33 e7 99 3c f4 86 e1 39 5b 04 2a bc
       -0.0048850966 0.018787002 0.00043015892 -0.010377015
000250 1a 2f 0c 3c 95 5d 28 3c c9 f8 35 3c 5a e1 bb 3b
       0.008556152 0.010276218 0.011106678 0.005733651
000260 e9 68 47 3c c9 34 cb bc d0 fb a2 3c 77 87 8a ba
       0.012171009 -0.024805443 0.019895464 -0.0010568936
000270 02 ca 02 3c 3d 8b cf 3c 3f b7 9c bb 35 87 68 3c
       0.007982733 0.025334949 -0.004782587 0.014192392
000280 62 e0 eb 3c 22 a8 74 ba aa a9 06 bc 56 62 9d 3a
       0.028793518 -0.0009332915 -0.008219162 0.0012007456
000290 11 05 54 3c 9b 06 de 3c 52 ca d4 bb 92 8d e3 ba
       0.012940661 0.02710276 -0.006493845 -0.0017360917
0002a0 85 58 a1 3b 6a 72 af bc 60 54 22 3c 2c f4 f6 ba
       0.0049238824 -0.021416862 0.009907812 -0.001884108
0002b0 0d bd 96 bb 4d bf a1 3c d7 83 07 ba 69 8b 49 bc
       -0.0046001733 0.01974454 -0.0005169487 -0.012301304
0002c0 00 2c c1 3c e2 6d d2 3b 4f 69 81 bb 0b 4d 44 3b
       0.023580551 0.0064217905 -0.0039493213 0.0029953148
0002d0 d6 42 b6 bc 32 9f b2 3b 40 ec 79 3c 91 e2 75 3c
       -0.022248667 0.0054511065 0.01525408 0.015007631
0002e0 2c f6 12 3c c4 af 0b 3c d3 b7 93 bc e0 d5 19 3d
       0.008969825 0.0085257925 -0.01803199 0.037557483
0002f0 66 34 cd 3b e6 d3 99 bb cd f9 87 3b e6 78 c5 3b
       0.00626235 -0.0046944497 0.0041496516 0.006026375
000300 dc 3f 76 bc dc fa 45 3c b4 77 23 bb a2 71 d7 bb
       -0.015029874 0.012083735 -0.0024943175 -0.0065748254
000310 78 56 29 3c 27 da 5e 3c 70 a0 c8 3b 38 5d cf 3c
       0.010335557 0.013601816 0.0061226413 0.025313005
000320 75 f5 dd bc 60 2f ac 3b dc 2b d8 bc d1 e7 a6 bc
       -0.027094582 0.005254671 -0.026388101 -0.02037421
000330 63 1c 1c 3c 67 40 e0 3b ee 1b a5 ba c0 48 66 3c
       0.009528252 0.006843615 -0.0012596825 0.014055431
000340 2f 58 72 bc d7 40 40 3c 7e 9a bd bb 82 29 2d bc
       -0.014791532 0.011734209 -0.005786239 -0.010568978
000350 2c 2d ab 3c 28 1b a7 3c 30 b3 7e bb f6 50 69 ba
       0.020895563 0.020398691 -0.0038864128 -0.0008900309
000360 7b 33 27 bb df ea a4 3c d4 cc 86 bb 5d e1 a0 3c
       -0.0025512862 0.020131527 -0.004113773 0.019638712
000370 e4 f0 58 3c d2 00 bf bb 67 c4 66 bc dd d2 f9 3a
       0.013241027 -0.005828955 -0.014084912 0.0019060035
000380 6f 82 b2 bb c8 19 24 3d d2 c3 17 bc 6a 3f 0f 3c
       -0.005447678 0.04006365 -0.009262996 0.008743146
000390 91 0e 61 3c 7d 8e 94 bc e1 17 f4 bb b0 d1 7c bc
       0.013736383 -0.01813435 -0.0074491356 -0.015430853
0003a0 fe 05 7d 3c 8d d7 48 3b 19 a6 53 bc 5c 6f 37 bc
       0.015443323 0.0030646056 -0.012918019 -0.011195984
0003b0 23 e7 90 39 d0 86 75 3b b5 17 96 3c de ea eb 3c
       0.0002763803 0.0037464388 0.018321851 0.028798517
0003c0 23 d7 f1 3b c3 c1 85 ba 8e be d0 ba d4 58 b5 bb
       0.0073803826 -0.001020484 -0.001592593 -0.005534271
0003d0 3a 24 97 bc e2 b1 c5 3c 8e cb 17 ba f6 f8 9c 3c
       -0.018449891 0.024132673 -0.0005790525 0.019161683
0003e0 ed 1a 60 3b 6c 67 31 bc 63 4d 22 3d 5c 43 82 bc
       0.0034195737 -0.01082788 0.039624583 -0.01590126
0003f0 c1 db 1a 3c 8c 4e 27 3c 25 e6 a5 3c 40 06 40 3c
       0.0094518075 0.010211598 0.020251343 0.01172024

arith.constant3 f4 [128]
000000 58 cf 6d bb 7f 4b c1 bc 09 92 c4 3b a5 04 f9 3c
       -0.0036286917 -0.02359557 0.005998854 0.030397722
000010 de a7 2b bb c5 55 d1 bc ac 3c ca 3c c3 97 c8 3c
       -0.0026192586 -0.025553593 0.024687134 0.024486428
000020 93 67 9c 3c 0a 89 df 3c 94 b2 ce bb f6 67 ca bb
       0.019092357 0.027287025 -0.0063079093 -0.006176944
000030 47 09 8d 3c a6 ec f0 bc 6d 4c cf bc ef 5e 45 bd
       0.017216338 -0.029409718 -0.025304997 -0.04818624
000040 89 a4 9b bc 39 e4 87 bc ac d2 91 bb 9a 1a 93 ba
       -0.018999355 -0.016588317 -0.004450163 -0.0011223138
000050 4d 17 02 bc 8c c5 0a bc 8b 8b f7 bb 75 5e be bb
       -0.007940126 -0.00846995 -0.0075544766 -0.0058096
000060 fc 3d bf b9 97 22 2b bd 7b f4 42 bb 45 fb 7d bb
       -0.0003647654 -0.041781034 -0.0029747772 -0.0038754505
000070 2f ba 2b 3b b2 d9 01 bc 5a 73 81 bc c1 87 8e bb
       0.0026203503 -0.007925438 -0.015802074 -0.004349679
000080 56 66 36 bc bf e3 95 bc f3 51 04 bc 8b 5a d1 3c
       -0.011132797 -0.018297074 -0.008076179 0.02555587
000090 e3 de 00 3c e5 c6 c7 bb ce 44 96 bc a4 e2 53 3b
       0.00786564 -0.006096708 -0.018343356 0.0032331133
0000a0 43 f0 85 3b 40 c6 01 bc f1 55 0f 3c ef 0c d4 3c
       0.0040874793 -0.007920802 0.008748517 0.025885073
0000b0 47 55 47 bc 16 2d 7b bc 67 f6 ce bc 16 0d 8e bc
       -0.012166328 -0.015330574 -0.025263978 -0.017340224
0000c0 a1 0d c7 3b fd 80 9e bc e1 46 85 bc c8 e0 e5 bc
       0.0060746227 -0.019348616 -0.01626915 -0.028061286
0000d0 ce 35 fd ba 03 90 02 bb 28 9f 79 bb 2c c2 24 3d
       -0.0019318403 -0.0019922263 -0.003808925 0.04022424
0000e0 13 49 3e bb cd db 16 bd 8d db 5d bb f8 55 9f bc
       -0.0029035255 -0.036830712 -0.0033852786 -0.019450173
0000f0 83 b1 1a 3c da da a5 3b c9 21 59 bc 2d 00 f4 3c
       0.009441736 0.0050614895 -0.013252684 0.02978524
000100 03 98 0d bc 64 de 8b bb b6 61 cd bb de b7 5f bc
       -0.008642199 -0.0042684544 -0.0062677516 -0.013654677
000110 61 7c 8b bc 87 cc b9 bc 17 3c f6 3b c6 8b fe bc
       -0.017027082 -0.022680534 0.0075144875 -0.031072509
000120 01 52 e6 bc d7 65 a3 bc bf 8c 11 3b ba a3 f6 bb
       -0.028115274 -0.019946022 0.0022209135 -0.007526842
000130 9e 8f 88 bc a5 73 90 bb 25 e9 55 3b 8f 6f 8c 3c
       -0.016670045 -0.004408317 0.0032640186 0.017143039
000140 61 49 8b bc dc d1 b1 bb 51 fe 2e 3c 53 93 a0 3b
       -0.017002763 -0.0054266285 0.010680751 0.004900375
000150 77 f8 81 bc 9d a5 e4 ba cb 32 3f 3c 05 36 2b 3c
       -0.015865548 -0.0017444376 0.011669825 0.010449891
000160 42 c2 72 bc dc 0d 6c bc 73 a2 8c 3b 72 a6 3b 3b
       -0.0148168225 -0.014407601 0.0042918264 0.0028633145
000170 38 b6 02 bb 15 9b 66 bc c0 06 6c bc cb 3a 9b bc
       -0.0019945037 -0.01407506 -0.014405906 -0.018948933
000180 0a e8 c5 3b 68 63 91 bc 05 0e f4 bb ca af 0a bb
       0.006039624 -0.017747596 -0.0074479603 -0.0021161907
000190 5e 2b 57 bc 9f 99 e4 bb d7 da b6 bc 69 35 2b 39
       -0.013132898 -0.006976321 -0.022321148 0.00016327728
0001a0 55 09 ab bb a7 b4 79 3c 7b 7d df 3c 59 d8 10 bc
       -0.0052196183 0.015240825 0.027281513 -0.008840644
0001b0 3d 2d 07 bd f0 b7 a9 3c 08 3d 77 bb fa 8a 16 bb
       -0.033002127 0.020717591 -0.0037725586 -0.002297102
0001c0 45 45 a1 3c 6f 16 cd 3b d8 09 b1 bb 6b a5 8d 3c
       0.01968635 0.006258778 -0.005402785 0.017290791
0001d0 b1 fd 80 3c ba 72 49 bc ae 22 05 3c 16 31 a0 bc
       0.01574597 -0.012295419 0.008125944 -0.019554656
0001e0 72 ee c6 bc 67 69 14 3b 0a 61 bc 3c 55 b8 ad bb
       -0.024283621 0.0022645833 0.02299549 -0.005301515
0001f0 e2 1f b5 3c 39 cb 01 bc 24 e1 de 3a c3 98 c1 bc
       0.02210993 -0.007921987 0.0017004353 -0.023632413

arith.constant4 f4 [64]
000000 a1 b9 ea 3b 72 38 1c 3c f5 07 7d 3c e5 65 85 3b
       0.007163242 0.009534942 0.015443792 0.0040709847
000010 f1 d7 20 3d ca 49 24 3d 4d b2 14 bc 00 08 58 bb
       0.039268438 0.040109433 -0.009075713 -0.0032963753
000020 63 36 15 3d b1 2a 8c 3b 92 6a 19 bc 1a 21 95 3c
       0.03642882 0.00427755 -0.009363787 0.01820426
000030 52 5f 47 3c 0d 80 29 3d 32 ef 0c 3c b4 d0 b1 3b
       0.012168722 0.041381884 0.0086019505 0.0054264907
000040 e1 fe bd 3c 16 89 77 3c a4 2c fd 3c 88 72 6f bc
       0.023192825 0.015108367 0.030905075 -0.014614709
000050 49 1e 0b bb 9a bd 27 bd 15 ec 8c 3c cd 74 9d 3b
       -0.0021227768 -0.040952303 0.017202416 0.0048051835
000060 3b 05 81 3d 18 77 fd 3c 19 95 25 3c 7e 84 51 3d
       0.06299826 0.030940577 0.010106348 0.051151745
000070 9c f3 5e bd 26 e8 ba bc 70 94 e3 3c b2 f6 58 bc
       -0.054431543 -0.022815775 0.027780741 -0.0132424105
000080 f5 57 7e 3c bf 49 49 bd 7c b6 ff bc b5 33 72 ba
       0.0155239 -0.049142595 -0.031214945 -0.00092392723
000090 fc 4b cc bc 1b 2d 23 bd 67 ff cd 3c 48 15 33 3c
       -0.024938576 -0.039837938 0.0251462 0.010930367
0000a0 78 c1 79 3c 49 dd da 3c b5 1c 64 bc 54 89 12 3c
       0.01524388 0.026716845 -0.01392286 0.008943874
0000b0 cd 30 86 3c d9 73 56 bb 83 10 68 3d f9 96 22 bd
       0.016380692 -0.003272286 0.05665637 -0.03969476
0000c0 4c 8c 93 3b 6d 75 31 bc 26 fe 6e 3c df ce 02 bb
       0.0045028087 -0.010831219 0.014586961 -0.001995973
0000d0 05 7e 0d bd d3 de b5 3b 51 57 28 3d 24 e8 3e bc
       -0.03454401 0.0055502444 0.041098896 -0.011652026
0000e0 e2 3f f6 3b 7c cf 9a 3c 14 88 69 bc f0 32 00 3c
       0.0075149396 0.018897764 -0.014253635 0.007824644
0000f0 46 da 26 bc 0e 4f 7f 3c 03 54 1d 3a d8 ee 2c 3d
       -0.010183876 0.015582813 0.00060015934 0.042219967

arith.constant5 f4 [5]
000000 e3 49 84 bc 89 c8 c7 3b b3 1d ac bb 89 43 6c 3c
       -0.016148513 0.0060969037 -0.005252564 0.0144203985
000010 08 78 53 bb
       -0.003226759

arith.constant11 f4 [256, 1, 3, 128]
000000 a6 29 a6 3c 62 2b 98 bb c1 11 b4 3c a5 0b 0f bd
       0.020283531 -0.0046438435 0.021981122 -0.034923214
000010 e1 c7 62 3d 03 90 61 3d c0 60 71 bd 94 f1 1e bd
       0.0553664 0.05506898 -0.05893016 -0.038804606
000020 b7 ca 9a 3b 51 95 b0 bd c0 9a 0a bb 56 ae 89 3c
       0.0047238725 -0.0862223 -0.0021149367 0.016806763
000030 cf 53 e2 3c d3 4b 84 3d 0c d4 23 bd 02 30 3c bd
       0.027627854 0.06459775 -0.039997146 -0.04594422
000040 b7 02 86 bd 1c b9 07 bd 67 07 87 3d 28 1d 32 bd
       -0.065434866 -0.03313552 0.06593209 -0.043484837
000050 88 4f 5f bd a4 ba 9c bc 46 86 e8 3c fb 2a 25 bd
       -0.054519206 -0.019131966 0.028384339 -0.040324192
000060 78 92 ad bd ec a0 5c 3d 60 a7 d8 3b 9d ca 7f bd
       -0.08475202 0.053864405 0.0066117495 -0.062449086
000070 c4 78 37 bd 64 3d 79 3d d8 ee 4c 3c c0 02 bd bc
       -0.044792905 0.060849562 0.012508117 -0.0230726
000080 ad 8a e9 3b 98 19 75 bd 1d ff 84 bc 47 8c 83 bd
       0.007127127 -0.05983886 -0.016234929 -0.0642324
000090 24 35 28 3d 02 eb 2f 3d e7 52 b9 bc 2d f5 79 bd
       0.041066304 0.04294873 -0.022622539 -0.061024833
0000a0 b7 34 18 bd 7c 05 fd ba 48 42 9d 3d 66 8a 1d 3d
       -0.037159648 -0.0019304003 0.07678658 0.038462065
0000b0 d6 2b bf bc 0b 51 70 3d e0 ec cd bc 5b 2f 16 bc
       -0.023336332 0.05867104 -0.025137365 -0.009166564
0000c0 5d dc e7 bc e7 42 3e bc 6a b7 29 3c fb 7d 15 bd
       -0.02830332 -0.01161263 0.010358671 -0.036497097
0000d0 7e e3 d1 3c 90 b1 cb 3c 4b 94 a1 bc 67 82 2c bc
       0.025621172 0.024864942 -0.019724032 -0.010529137
0000e0 69 d0 55 bd 5b e3 04 bc 8d 7f 95 bc 5d 78 58 bb
       -0.05220071 -0.008110846 -0.018249298 -0.0033030726
0000f0 47 fd c9 bc 33 b8 81 3d 61 11 e3 3c 94 b5 5d 3d
       -0.024656905 0.06333961 0.027718248 0.054128245
000100 a0 40 11 bd da 80 08 3c 53 a0 5c bd c1 02 44 3d
       -0.03546202 0.008331502 -0.053863835 0.04785419
000110 76 92 24 3d cd e4 24 3d 6f e3 4e bd 4f d3 a5 bc
       0.04017874 0.040257264 -0.050509866 -0.020242361
000120 65 b9 86 3d ea 4c 83 bd 6a 8e 26 bd 81 bd 2b 3d
       0.0657833 -0.064111546 -0.04066316 0.041928772
000130 9e 1d fb bc da c7 b5 3d e4 fd 01 3d f8 1c a4 bd
       -0.030653771 0.08876009 0.03173627 -0.08013338
000140 da c5 29 3d 75 b3 bb 3d 39 8e ed bc 25 02 38 bc
       0.04144845 0.09165088 -0.028998481 -0.01123098
000150 8f 13 04 3d 13 0d b7 3d df 3a ff 3c 6e e0 87 bd
       0.032245215 0.089380406 0.031156002 -0.066346034
000160 e0 ed 82 3d 5b bf 7a 3d d9 0f 90 bd c3 3b 1e bd
       0.06393027 0.061217647 -0.07034273 -0.038631212
000170 2f f5 7d 3c f4 63 8d bc 3e 10 34 bd 7c 6a 39 3d
       0.015500351 -0.017259575 -0.043960802 0.045267567
000180 b6 92 72 3d 04 20 58 3d 48 62 69 3d 9e 8b a3 3b
       0.059221946 0.052764907 0.056978494 0.004991009
000190 60 bc c7 bc be 6b 17 3d e0 04 7c bd a5 5f 0e 3d
       -0.024381816 0.036967985 -0.061528087 0.034759182
0001a0 62 5b 34 3d 22 d4 89 b9 5c f3 49 bd 77 b1 97 bd
       0.044032462 -0.00026288728 -0.04930435 -0.074068956
0001b0 65 7e b9 3c c6 ce c0 3c 3c d0 6b 3d 3b 19 9b 3b
       0.022643277 0.023536097 0.057571635 0.0047332323
0001c0 03 f6 b3 bc 40 04 1d 3d 23 97 80 bc b0 a7 1a 3d
       -0.021967893 0.03833413 -0.015697068 0.037757576
0001d0 bd be c5 bd 73 b9 b0 3c 40 93 c1 bb f8 97 e6 3c
       -0.09655521 0.021572804 -0.005907446 0.028148636
0001e0 3c f6 20 bd dc b1 3a bd 2f 0e cf 3c 3d 43 44 3d
       -0.039297327 -0.045579776 0.025275318 0.047915686
0001f0 26 18 2e 3c 5f 67 8c bd a9 17 86 3c b6 18 89 bd
       0.010625875 -0.06855654 0.016368704 -0.06694166
000200 0b ef a0 3d e3 f8 1b 3d 96 ff 27 3d 6d a1 d4 ba
       0.07858094 0.038079154 0.04101523 -0.0016222425
000210 39 9f dc bc 53 3f a2 3d 67 73 08 3c a7 39 8d 3d
       -0.026931392 0.079222344 0.008328295 0.06895762
000220 97 7b 9b bd 18 77 83 3c 4e 6d 8f bd f7 40 da 3c
       -0.07591932 0.016048 -0.0700327 0.026642306
000230 13 c3 2e bd 26 6d f2 3c c2 24 0b 3d 2e be 97 bb
       -0.042666506 0.029593062 0.0339706 -0.0046308255
000240 a3 33 5f 3d 00 7e ac bb e9 62 70 bc 2f 8e 59 3d
       0.054492604 -0.005264044 -0.0146720195 0.053114112
000250 ef a7 8f bc d5 10 d6 3c 3e 83 85 bd e6 0a 1a bd
       -0.017536132 0.026131073 -0.06519173 -0.03760805
000260 62 c1 89 bd 6b 58 86 3d 21 7b 8f bd d9 e5 9e 3c
       -0.06726338 0.06559833 -0.07005907 0.01939671
000270 cd 1d c3 bc f6 42 a4 bc 31 3a 0e 3d d0 15 78 bc
       -0.023817921 -0.02005146 0.034723464 -0.015141919
000280 2e 8c 64 3c cd 8f 97 bc 5a 7a 1b 3d 4a e5 d7 3b
       0.013949437 -0.018501187 0.03795848 0.0065886127
000290 c9 93 eb bc c1 45 65 bd ab 37 9a 3d b6 1d 07 3d
       -0.028756993 -0.055974726 0.07530149 0.03298732
0002a0 c1 30 a3 bd df 0a 8e 3c ea b9 bf bb 11 66 13 3d
       -0.079682834 0.017339168 -0.00585102 0.03598601
0002b0 26 08 7c 3d 1a 04 15 3d f2 ab 91 bb 74 b2 c7 bb
       0.06153121 0.036380865 -0.0044455463 -0.0060942713
0002c0 42 a7 5e bc 20 d0 fa 3c 07 9c 90 3c cb c0 73 b9
       -0.013589682 0.03061682 0.017652525 -0.00023246107
0002d0 5e 26 5b bc 28 08 98 3d 29 98 26 3d 9d 32 35 3d
       -0.013375847 0.07423431 0.040672455 0.04423772
0002e0 2c 6f 41 bd e5 78 27 bd 70 e6 8a 3d 60 6b 9f 3d
       -0.047225162 -0.04088678 0.06782234 0.07784152
0002f0 15 b9 b1 bc 7c 62 1e bc 46 1c 38 3d 6b 0d 6e 3b
       -0.0216947 -0.009667035 0.04494884 0.0036323916
000300 77 aa 13 3d 91 87 6d 3d f0 cf ed bc e5 6a fa bb
       0.03605124 0.057990614 -0.029029816 -0.0076421374
000310 5e cf 3d 3d 8e 51 fc bc ab 24 28 bd 06 d8 96 3d
       0.04634034 -0.030800607 -0.041050594 0.07365422
000320 2e 0a 7b 3d c3 90 f7 bc 35 63 66 3d c2 05 11 bd
       0.061289005 -0.030220395 0.056246955 -0.03540588
000330 11 27 1e 3d 24 82 c3 bc 69 26 1c bb fe 31 34 bc
       0.038611475 -0.023865767 -0.0023826605 -0.010998247
000340 d1 5d 32 3d 05 bf 31 3d bf 7d 7d bd c0 7e 83 3c
       0.0435465 0.04339506 -0.0618875 0.01605165
000350 e9 57 21 3d f0 a6 c3 bc 8c 9d bd ba e5 09 b3 3a
       0.03939048 -0.023883313 -0.0014466508 0.0013659565
000360 4c 5e 3b bd 12 55 49 bc e6 ad 1c bd 21 be ed 3c
       -0.045744225 -0.012288349 -0.03825178 0.029021325
000370 ae 25 4d 3d ef cd 77 3d a6 01 0a bc 23 a9 96 bc
       0.050084762 0.060499128 -0.008423245 -0.018391198
000380 ac 73 38 bd 3b 3d 74 bc 02 6f fa bc 06 1c 38 bd
       -0.04503219 -0.014907177 -0.03057051 -0.0449486
000390 c2 ea 14 bd 44 d6 14 3d cc 0b 46 bd 19 d7 37 bb
       -0.036356695 0.036337152 -0.048351094 -0.0028051792
0003a0 6b a8 e1 ba 27 fb 2c 3c 9c 6e 8f bd 85 ae f6 3c
       -0.001721633 0.010557926 -0.07003519 0.030112514
0003b0 b5 ba f4 bc 4c bb 2e 3c e8 53 81 3c e0 97 85 3c
       -0.029874185 0.010664772 0.01578708 0.016307771
0003c0 62 bc 28 3d a0 1d 54 3d 9a b1 b4 3c 34 ec 8a bc
       0.04119528 0.051786065 0.022057343 -0.016958334
0003d0 1f 29 28 bd ba 14 cb 3d 15 40 26 bc e2 02 5e 3d
       -0.04105484 0.09916063 -0.010147114 0.054201968
0003e0 49 e6 e4 bc 0b 1a da 3c a6 92 5c bb d4 76 f6 bc
       -0.02794184 0.026623746 -0.0033656745 -0.030085959
0003f0 ba e6 85 3d 2c a6 80 bc 09 99 24 bc 26 df 43 bd
       0.06538148 -0.015704237 -0.010046252 -0.047820233

arith.constant12 f4 [128, 1, 5, 64]
000000 8e 40 99 bd 4f 76 45 bb 29 fa 1d bd 22 c9 10 3d
       -0.07483016 -0.0030130332 -0.03856865 0.035348065
000010 15 08 96 3d ed d8 38 3d cc 80 87 bc a9 e9 8a 3d
       0.0732576 0.04512875 -0.016540907 0.067828484
000020 f5 a8 ad bd 3d 6f 2b 3c 6a 13 4d 3d 63 ab 55 bc
       -0.084794916 0.010463533 0.050067343 -0.01304135
000030 cf 73 31 bd 3b f6 99 bd 86 3d 0b bd c4 a7 a1 bd
       -0.043323334 -0.07517668 -0.03399422 -0.07893327
000040 43 a4 49 3c 60 08 95 bd 85 5a 25 bc c8 ca 7c 3d
       0.012307229 -0.07276988 -0.010092382 0.061716825
000050 21 c0 74 3c 3e 6f 45 bd e7 c2 91 bd 43 58 cc bc
       0.014938385 -0.048201792 -0.07117253 -0.02494443
000060 7d e8 71 bd 5e c0 8a 3d 40 ca 65 3c a9 62 3d bd
       -0.05905961 0.067749724 0.014025271 -0.046236668
000070 b0 73 9d 3b 20 83 b2 bd cf 7d 1d bd f6 00 88 3d
       0.004805051 -0.08716416 -0.03845006 0.06640808
000080 7b 8f 9f bd 75 f4 4a 3d e4 59 ab 3d 20 9c 0c 3b
       -0.077910386 0.04954954 0.08366755 0.0021455362
000090 8e 56 81 bd 23 2c bb 3c 25 04 6d bd b2 24 11 3d
       -0.06315337 0.022848194 -0.05786528 0.035435386
0000a0 0c 82 50 3b d3 74 55 b9 24 aa 62 bb 71 2c 29 3d
       0.0031815795 -0.00020356783 -0.0034586275 0.04130215
0000b0 9a 28 6f bc f9 df 74 3c e5 44 4d 3d 91 1e a1 3c
       -0.0145970825 0.014945977 0.05011453 0.019667896
0000c0 36 bd 6d bd 8c 9f b3 3b cf 10 41 3d 23 18 a1 3d
       -0.058041774 0.005481666 0.04713517 0.07865932
0000d0 90 9c 18 bd 57 3f 35 3d f5 32 97 3c 5e f5 62 bd
       -0.037258685 0.04424986 0.018456915 -0.05540978
0000e0 a3 11 86 bd 6a d6 9e ba f9 2e 2b bd ac cb 5d bd
       -0.06546333 -0.0012118344 -0.041792843 -0.054149315
0000f0 85 d6 86 bd d7 05 5c 3d 11 ef 94 bc 86 81 83 3c
       -0.06583885 0.053716507 -0.018180402 0.016052973
000100 9c 79 92 3d 99 81 e2 3c 98 71 49 3d 80 44 67 3d
       0.071521014 0.027649688 0.049180597 0.05646181
000110 1a cf bc 3c 12 18 0d 3d b3 18 a2 3d bd 37 a3 bd
       0.023047972 0.034446783 0.07914867 -0.079696156
000120 d0 ee 3e bd 5f ac dd 3c ed 21 94 3c 25 0e 28 3d
       -0.046614468 0.027059732 0.018082583 0.041029114
000130 16 79 91 3d 97 22 6f bd a4 8f 63 3c e3 12 1c bd
       0.071031734 -0.058382597 0.013889227 -0.03810395
000140 e4 b8 dc 3c 84 5b 04 bb 2f 86 95 bc d1 5c 14 3d
       0.026943631 -0.002019615 -0.01825246 0.03622133
000150 f9 99 16 3c c0 44 8c bd 7c c4 6d 3d bf 22 5c bd
       0.009191983 -0.068490505 0.05804871 -0.053744074
000160 05 20 06 bd 34 1c 99 3d 17 3b de ba 14 dc 6a bc
       -0.03274538 0.074760824 -0.0016954866 -0.014334697
000170 f5 6d fc bc d5 d5 2e 3d ef c7 a5 3c d6 25 c6 bc
       -0.03081415 0.042684395 0.020236937 -0.024187963
000180 49 d7 60 bd 9e 14 83 3c f5 ab af 3d 92 3d 6f bc
       -0.054892812 0.016001042 0.0857772 -0.014602082
000190 d3 60 bb bd 2c 15 48 bd e1 d6 9c 3c 8b f4 65 bd
       -0.09149327 -0.048848316 0.019145431 -0.056141417
0001a0 eb 99 58 3d 13 2b 85 3d 86 ce 72 3b 5d ab a1 bc
       0.052881163 0.065023564 0.0037049367 -0.019735033
0001b0 8c 4f 9e bc d1 58 6f bd fa bd 45 bd 51 c0 03 3d
       -0.01932504 -0.05843431 -0.04827688 0.03216583
0001c0 07 31 9c bd fd 3b 35 bc 44 d5 31 bd 03 9d b9 3c
       -0.07626539 -0.011061666 -0.043416277 0.022657877
0001d0 cc 09 65 3c 4c 73 05 3d 25 8e 96 bd f6 35 08 3d
       0.013979387 0.03258066 -0.07351331 0.033254586
0001e0 00 aa e9 3c 71 fc 11 bb 30 26 7c 3d 84 c8 fd 3c
       0.028523445 -0.002227571 0.061559856 0.030979402
0001f0 24 d6 5f bd 9d ee 31 bd b0 4c 48 bd f4 52 2c 3c
       -0.05464758 -0.04344045 -0.04890126 0.010517824
000200 05 38 74 3d 76 44 e0 3c be e8 03 bc bc 46 2c 3c
       0.059623737 0.027376395 -0.0080510955 0.010514911
000210 7d a2 df 3c f2 20 39 bd a9 d0 47 bd d4 ff 33 bc
       0.02729916 -0.045197435 -0.04878298 -0.010986287
000220 f3 50 a7 3c 6b bf 58 bd 66 a9 8e bc a1 d8 52 3d
       0.020424342 -0.052916925 -0.01741476 0.051476125
000230 3d 90 75 bd 8e de 6d bc 63 20 9b bd 06 fa 04 bd
       -0.05995201 -0.014518393 -0.07574537 -0.032465003
000240 02 98 05 3c 1b fe 68 bc a9 32 20 bd a5 3f a9 bd
       0.008153917 -0.01422074 -0.039110813 -0.08264092
000250 05 94 d3 3c c2 08 a6 bd 10 59 97 bd a9 66 1e bc
       0.025827417 -0.08107139 -0.07390034 -0.009668031
000260 47 c0 2e 3d 52 22 18 bc e4 2c 80 bd 01 18 10 3d
       0.04266384 -0.009285526 -0.06258562 0.035179142
000270 85 78 eb bc 46 f1 69 3d b9 45 32 3d 6d d7 8d bd
       -0.028743992 0.057114862 0.043523524 -0.06925855
000280 d5 23 f4 bc fa be 0f bd 04 f8 85 3d af a0 8a 3c
       -0.029802242 -0.03509424 0.06541446 0.016922323
000290 a2 0d 4d bc c7 ca 62 3d 13 5a a6 bd 52 91 80 bd
       -0.012515457 0.055369165 -0.08122649 -0.06277718
0002a0 30 d9 34 3d 4e b4 97 3c 04 c4 03 3d 97 29 95 3d
       0.04415244 0.018518593 0.032169357 0.07283323
0002b0 16 43 84 3d ec 41 8a bd ec 13 8c 3c 42 f2 79 bd
       0.06458108 -0.06750855 0.017099343 -0.06102205
0002c0 f2 20 1c 3d 41 27 26 3d ff 80 f6 bc 41 08 97 bd
       0.038117357 0.04056478 -0.030090807 -0.07374621
0002d0 c9 ab 3a bd c4 83 0c bd 17 b7 b4 bd db 10 95 bc
       -0.045573983 -0.03430535 -0.08823984 -0.018196514
0002e0 8b d9 3b bd a7 20 14 3d a8 8c 84 bd ac ea ef bc
       -0.045861762 0.036163952 -0.064721406 -0.029286705
0002f0 1c 7b 9b 3c 29 f6 b6 3d cb 69 4f 3c 9e 34 a5 bd
       0.018979602 0.0893367 0.0126595 -0.080666766
000300 b7 56 75 3d cd 97 46 3d 92 f1 85 bd ac 3f 8d bc
       0.05989715 0.048484612 -0.065402165 -0.017242275
000310 c9 ad 58 3b de 04 6e 3d fe 2a f1 3b 89 98 4a 3d
       0.0033062568 0.05811011 0.0073598614 0.049461875
000320 88 23 9a 3d 12 50 2f 3d 3e a3 c4 bc 7f ce 3b 3d
       0.07526308 0.04280097 -0.024003621 0.045851227
000330 b3 98 62 3b be 35 2f bd bd 76 ac 3a 0c 70 20 bd
       0.003457588 -0.042775862 0.0013157945 -0.039169356
000340 7b ac d2 bc b1 98 98 bd 09 21 57 bc cb 9b a9 bc
       -0.02571701 -0.074509986 -0.013130435 -0.02070417
000350 07 1c 87 bd c0 b7 fa 3a 30 90 5c bd bb 32 91 bd
       -0.06597143 0.0019128248 -0.053848445 -0.07089754
000360 0e 4a 79 bb 68 5b 01 3c 8e 41 27 bd 4f 55 12 bd
       -0.0038038525 0.007895328 -0.040834002 -0.035725888
000370 b7 2c 9a 3d e0 dc 16 3d e0 c6 3c 3b 02 27 0c 3d
       0.0752806 0.036831737 0.0028805062 0.03421689
000380 07 01 1c bb c5 9a 3e bc 2a 9e 94 3d 0c 5b b2 bc
       -0.0023804323 -0.01163358 0.0725673 -0.02177193
000390 d4 72 80 bc e6 eb 2b bc de 9f 86 3b 49 eb 79 3d
       -0.015679754 -0.010493254 0.004108413 0.0610154
0003a0 e5 03 6c bd 42 7c 87 3d 46 30 5c bb a4 71 5d bc
       -0.0576209 0.06615497 -0.003359811 -0.013515864
0003b0 35 24 d9 bb b6 e1 eb bc 37 cb c9 bd 37 d4 47 3b
       -0.0066266307 -0.02879415 -0.09853213 0.003049148
0003c0 c4 f6 15 bc 60 61 8b 3d a7 09 68 3b 00 ee 89 bd
       -0.009153072 0.06805682 0.0035406144 -0.06734848
0003d0 c5 b3 42 bc e2 21 36 3d 60 46 e7 bd ef 0a 47 3d
       -0.011883681 0.044465907 -0.1129272 0.04859441
0003e0 67 40 78 3c 17 a2 61 bd 7d 41 0d 3d 44 ed 47 bd
       0.015152073 -0.05508622 0.034486283 -0.04881026
0003f0 32 9f 57 bd b3 f0 43 bc 47 0e 98 bd af 9c c3 bd
       -0.052642055 -0.011959243 -0.07424598 -0.095513694

arith.constant13 f4 [64, 1, 5, 3]
000000 ab a2 c5 3d f1 a9 26 bd 62 ce 73 3d 86 f1 05 be
       0.09650167 -0.040689413 0.059522994 -0.13080415
000010 ea b1 0e 3e ed 0f ca bd f7 6c ef bc 97 f2 10 3d
       0.13935056 -0.09866319 -0.029226763 0.0353876
000020 db 7c cf 3d 43 50 06 3d ef 21 fa 3d f7 8e 44 3d
       0.10131236 0.032791387 0.122135036 0.047987904
000030 36 a8 d6 bd 14 25 ed bd 87 b8 27 bd ba 4c ac 3d
       -0.104813024 -0.11579338 -0.040947463 0.08413072
000040 b3 a3 e6 bb 20 14 3f bd 42 da 88 3d 95 c2 0a 3c
       -0.0070385574 -0.046650052 0.066822544 0.0084692435
000050 d5 88 8c bd c4 fd 89 3d 92 1d a1 bc 66 7b 9f 3a
       -0.06862036 0.06737855 -0.01966742 0.0012167513
000060 4f b1 a2 3b 54 be 90 bd 28 db e2 bd c6 9e 5b 3d
       0.0049649845 -0.07067552 -0.11076957 0.053618215
000070 c5 37 e5 bd cc d1 15 3d a5 2a 3c 3c 08 af 27 bd
       -0.11192278 0.03657703 0.011484777 -0.040938407
000080 a4 a3 56 bd ae ff a2 3c b8 7e 05 3d b6 1c 54 bd
       -0.052402154 0.019897308 0.03259155 -0.051785193
000090 9f 74 98 bd f6 bb ff bc 7a 93 b3 3c 86 cb 11 bd
       -0.07444119 -0.031217556 0.021920908 -0.035594486
0000a0 45 1f e6 bd 3d 4a a8 bd 15 8a b2 bd 8e 5c 56 3d
       -0.11236433 -0.08217285 -0.08717743 0.05233436
0000b0 10 be 67 bd ff 42 04 3e 4c f6 1e be ba 10 c2 bc
       -0.056577742 0.12916182 -0.15523642 -0.023689616
0000c0 69 bd 63 bd b6 f5 a6 3d f1 56 0f 3d 91 ee 10 3d
       -0.055600557 0.081523344 0.034995023 0.035383765
0000d0 85 61 c4 bd 19 78 a7 bd 98 35 98 bd cf 10 ce 3d
       -0.09588913 -0.08177204 -0.07432097 0.100618
0000e0 d4 e0 af bd e0 2c 9d bd 36 de 1a be 17 83 6e 3d
       -0.085878044 -0.07674575 -0.15123829 0.058230486
0000f0 3f 0c c1 3c 1f 00 90 bc d6 02 e1 3d 7a fd 2d bc
       0.02356541 -0.017578183 0.10986869 -0.010619516
000100 01 9c 07 bc 5f 71 1e 3d 9c e1 e5 3d c2 60 84 bd
       -0.00827694 0.038682338 0.11224672 -0.064637676
000110 6f 6e 4a bd 2f 82 f0 3d c1 92 fa 3d 0b a3 be bc
       -0.049421724 0.117435805 0.12235022 -0.023271104
000120 9d 05 4b 3d 5c 44 9e 3d 38 54 b2 3d cb 1b 3a bd
       0.0495659 0.07727882 0.0870747 -0.04543666
000130 2d 87 08 bd 66 50 d7 bd 07 3a d8 3d b9 b9 1d bd
       -0.03333204 -0.10513382 0.10557943 -0.038507197
000140 6f 52 fd bc 06 00 fa 3d 83 06 d6 bd 39 04 09 bd
       -0.030923096 0.12207036 -0.10450461 -0.033451293
000150 aa 68 a3 bd 6d 68 6a 3d 14 0c 97 3d bd d4 bf bc
       -0.079789475 0.057228494 0.073753506 -0.023416871
000160 d1 43 a9 3d 36 9c c0 bd 24 e4 d8 bd 26 29 bc bd
       0.08264888 -0.09404795 -0.10590389 -0.09187536
000170 a0 0d ea 3c bc cd 8c bd 61 d6 f6 3d 8c 84 8f bc
       0.02857095 -0.06875178 0.12052608 -0.017519258
000180 20 14 14 3e 96 0a 2b 3d 09 b7 d7 3d fc 08 50 3d
       0.14460802 0.041758142 0.10532958 0.05078982
000190 af 0c f0 bb 77 ed 8a bc 2e 2f 86 3c 5b 73 92 bc
       -0.0073257308 -0.016958935 0.016379919 -0.017877271
0001a0 95 75 d6 bd 20 2f 76 3d 57 28 bb 3d f0 38 d6 3c
       -0.10471646 0.060103536 0.091385536 0.026150197
0001b0 ff 6e 04 3c a3 bf bd bd 76 9d 15 3e 63 b1 2a 3d
       0.008083104 -0.092650674 0.14610848 0.041673075
0001c0 0b 38 4e 3c f6 37 46 3d b0 ce bc 3c ac b6 a1 bd
       0.012586604 0.048393212 0.023047775 -0.0789617
0001d0 ea 2d e0 3d a2 33 01 be aa a3 fb 3d 5a 6a bb bb
       0.109462574 -0.12617353 0.12287076 -0.005719465
0001e0 48 40 1f bc 46 20 14 3d de 29 90 bd a0 31 0f bc
       -0.009719916 0.03616359 -0.070392355 -0.008739859
0001f0 b8 7f fe 3c 74 9d f5 bd aa 39 10 3d 7d a4 b9 bd
       0.03106676 -0.119929224 0.035211243 -0.09064577
000200 51 e3 b8 3d 6e b0 cd bd 6b a7 23 bd ab 4a 15 be
       0.09027732 -0.10043417 -0.039954584 -0.14579265
000210 7e 3e db 3d 3d 43 19 3d ba 6b a0 bd 6f 3e 95 bd
       0.10705279 0.03741764 -0.07833047 -0.07287299
000220 bf d5 43 bd 16 59 c7 3d b3 f7 a0 3d d3 91 6b 3d
       -0.047811266 0.09733789 0.07859745 0.057512116
000230 5e 83 3e 3d f1 7a 96 bd ee 40 8f 3d 5b ea 4d 3d
       0.046512 -0.07347668 0.06994806 0.050272327
000240 3a 52 a8 3c cb 28 a0 bd d6 c8 12 be 9e 7e d7 bc
       0.020547021 -0.07820281 -0.14334425 -0.026305493
000250 59 b2 95 bc ef 79 0e be 36 0f a0 3d 74 db 78 3c
       -0.01827352 -0.13913701 0.07815401 0.01518904
000260 56 44 8c 3d 3a ed f0 3c dd 2c ac bd 99 61 a8 bd
       0.068489715 0.029409993 -0.084069945 -0.0822174
000270 9f c4 08 be 4b dd 89 bc f5 df 10 bd 90 1a df bd
       -0.13356255 -0.016829154 -0.035369832 -0.10893738
000280 cd 6d dd bc 46 eb 09 3d e3 25 12 be b5 a0 0e 3e
       -0.027029896 0.03367164 -0.14272265 0.13928492
000290 46 30 74 3c 29 65 12 be a4 ec b2 bd eb 18 fe 3c
       0.014904087 -0.14296402 -0.08736542 0.031017741
0002a0 82 48 46 3d 05 aa e3 3b e2 b8 0a 3d c3 6c 45 3d
       0.048408993 0.006947758 0.033867724 0.048199426
0002b0 fc c7 bd bd b2 14 8e 3d d5 f0 f9 3d fa b9 9b bb
       -0.092666596 0.06937541 0.12204138 -0.0047523947
0002c0 c7 eb 34 3c 0a cf 35 bd db 9a 1c 3e 70 b8 55 3d
       0.011042542 -0.0443869 0.15293448 0.052177846
0002d0 d8 b5 0d be ef 86 13 bd c3 9a 8a bd 80 43 47 bd
       -0.13838899 -0.036017355 -0.067678 -0.048648357
0002e0 11 b4 47 3d ce 94 a5 3d ac a8 11 be c3 77 cd 3c
       0.04875571 0.08085023 -0.142245 0.02508152
0002f0 fa 11 dc b9 d8 ab 7e 3d 3e 36 76 3d 19 e9 48 3d
       -0.00041975064 0.0621756 0.060110323 0.049050424
000300 25 99 ba 3c a8 9b c4 bd 96 2a d2 bd 01 fc 4f 3d
       0.022778103 -0.096000016 -0.10262029 0.05077744
000310 d5 b7 25 3d f9 02 4e 3c 63 1f 55 bb a4 ba 1b 3d
       0.04045852 0.012573951 -0.0032519929 0.03801979
000320 0e c0 87 3d 14 f9 b9 3c 87 dc 8d 3d a5 d3 9c ba
       0.066284284 0.022701778 0.06926828 -0.001196493
000330 48 1f 1e 3d 75 62 07 be 1e 3f f9 bd 51 6e 05 3e
       0.03860405 -0.13221152 -0.12170242 0.13030364
000340 7e 2c a3 ba af 24 be bc cc 81 b0 3d 6c d2 4a 3c
       -0.0012449173 -0.023210851 0.08618507 0.01237927
000350 f6 e0 dc bc 9a b8 11 3e 06 8f 29 3d bf dc a4 bd
       -0.026962738 0.14230576 0.041396163 -0.080499165
000360 8e 2d 8f bd 9f b9 31 3d b0 a9 39 bd ec 8f 10 bd
       -0.06991111 0.043389913 -0.045327842 -0.035293505
000370 5e 9f cb 3d a7 fe ba 3d 11 74 f1 3d 84 88 29 3c
       0.09942506 0.09130602 0.11789716 0.010347489
000380 2a db 03 3e c0 15 9a bc b3 f2 9b 3d 60 24 1d bc
       0.12876573 -0.0188092 0.076146506 -0.009591192
000390 b6 c6 97 3d 90 1d af 3d d6 6e 06 3d 72 09 3e bc
       0.07410948 0.085505605 0.032820545 -0.011598932
0003a0 bc 2a 5f 3c 52 ef 88 3d 96 5d 94 bd c6 f0 92 3d
       0.0136210285 0.06686272 -0.072444126 0.0717483
0003b0 c5 63 12 3e 32 2c b0 bd 1d ad ed bc 18 27 80 bd
       0.14295872 -0.086021796 -0.02901321 -0.062574565
0003c0 41 c4 fc 3d 85 ad 3d 3d a1 0f 3b 3d 3d 52 90 bc
       0.1234212 0.04630806 0.0456692 -0.01761734
0003d0 63 20 d6 bd ff d9 dc 3d 30 60 57 3d 54 ab da bc
       -0.10455396 0.10783767 0.052581966 -0.026693024
0003e0 fb 63 a2 3d 0d e1 b1 3d 58 83 87 bc 6a c2 2e 3d
       0.07929226 0.08685503 -0.016542122 0.042665876
0003f0 a2 e0 7a bc bc 28 7d bd 39 9f 0d 3c 48 7a 00 bd
       -0.015312346 -0.061806425 0.008643919 -0.031366616

arith.constant14 f4 [5, 64]
000000 f1 fc 88 3e 15 23 89 3e 68 10 29 3d 0e 86 2d be
       0.2675548 0.26784578 0.04127541 -0.16945669
000010 df 0b 91 3c b5 23 2e be 31 12 b5 3b a4 ba 6b be
       0.017705856 -0.17005809 0.00552585 -0.23020416
000020 7a f5 a2 be 4f e9 1f 3e b4 1a 73 3e ad 1a 0d bd
       -0.3182791 0.15616344 0.23740655 -0.034449268
000030 d0 9c 63 3e 5c 63 2b 3e 89 c2 1d 3e 32 4a 65 3e
       0.22227788 0.16737121 0.1540624 0.22391585
000040 06 df cd bd bd 2f 19 be b3 06 8c be f2 61 1f 3e
       -0.10052304 -0.14959617 -0.2734886 0.15564707
000050 a0 bf 66 3e 42 ad 64 bd 21 5d 20 3e 10 c8 d6 3d
       0.22534037 -0.055829294 0.15660526 0.10487378
000060 ed 7e 80 be 74 b1 bc bd 27 0e cc bd 06 81 92 3d
       -0.25096837 -0.09213534 -0.09963637 0.071535155
000070 b2 0a 58 3d 6d f7 4c 3e 86 60 1a 3e 3a 18 9a bd
       0.052744575 0.2001626 0.15075883 -0.07524152
000080 f3 93 51 be 21 64 8f 3e 0c 85 49 bd d1 67 32 be
       -0.20466594 0.2800608 -0.04919915 -0.17422415
000090 4d 89 64 3d b8 69 25 3d 15 4c e1 bc fe 97 6c 3e
       0.055795003 0.040384024 -0.027502099 0.23104855
0000a0 60 27 07 3e 81 dd bc bd b2 86 10 3e 8a c1 53 be
       0.13198614 -0.09221936 0.14113882 -0.20679298
0000b0 12 aa 0a 3d 16 35 c6 bd fa dd 6a 3e 9b bf 9d 3e
       0.033853598 -0.09678094 0.2293624 0.30810246
0000c0 5d c6 0c 3e e3 e4 85 3e ac cb 9b be 04 2c 0a be
       0.13747545 0.2615119 -0.30428827 -0.13493353
0000d0 2f 97 bf 3d ff b6 2e be cd c1 24 be fa d7 9f be
       0.09355008 -0.17061995 -0.16089554 -0.31219465
0000e0 db 78 2e 3e 98 fb f8 bd 0a ff 91 3e d7 b0 82 be
       0.1703829 -0.12157363 0.28514892 -0.25525543
0000f0 66 49 ad be e1 ae b1 3d 5a 81 3e bc 27 f5 8b be
       -0.3384506 0.08675934 -0.0116275195 -0.27335474
000100 30 87 64 bd c9 7a 73 3e 11 ed bf 3d 38 4a 6d 3e
       -0.055792987 0.23777308 0.09371389 0.23172843
000110 d6 59 d3 3c 65 f8 1b 3e e9 37 45 bd bd ee 84 be
       0.025799673 0.15231474 -0.048149023 -0.25963393
000120 71 0c 48 3e cb b8 92 3e d7 6a b4 bd 0f 60 34 3d
       0.19535996 0.2865661 -0.088094406 0.04403692
000130 10 9f 8d 3e 63 e8 ce bc c2 1a 88 bd 57 e5 6c be
       0.27660418 -0.025257295 -0.06645729 -0.23134361
000140 07 22 c9 bd 98 fb 4f be 4c 32 7d bc 62 c3 13 be
       -0.09820943 -0.20310819 -0.015453886 -0.14430001
000150 46 44 70 be 51 82 2d 39 f9 62 8b be ba f3 a0 3c
       -0.23463544 0.00016547112 -0.27223948 0.019647468
000160 3f 0b 3a bb 9c 25 cc bd fe ca 76 3d 41 a3 32 be
       -0.002838805 -0.09968111 0.060252182 -0.17445089
000170 02 35 42 bd 1c 44 a8 3b d9 4c 86 3e 78 c9 82 bd
       -0.047413833 0.0051350724 0.26230505 -0.06386083
000180 ca 42 31 3e 86 59 42 3e 23 cf 5d be cb 27 80 bd
       0.17310634 0.18979463 -0.21661048 -0.0625759
000190 52 cb 2a be cb d3 90 3d fc 51 3e be bd c5 a2 3d
       -0.16679123 0.07071646 -0.18585962 0.07947872
0001a0 f0 7e 9a 3d d8 67 45 bd b7 ff 1c 3d 3e 37 fc bb
       0.07543743 -0.048194736 0.038329806 -0.007697015
0001b0 ff ef 78 be ca 50 70 be 83 d3 60 be 15 3b 87 3e
       -0.24310301 -0.23468319 -0.21955685 0.26412264
0001c0 b3 93 6e 3e 58 70 fa bd 48 4f de bd ed 81 94 3e
       0.2329853 -0.12228459 -0.108549654 0.29005376
0001d0 29 09 0c bd 43 ab f3 bc a4 0a 65 be 79 02 6a 3e
       -0.034188423 -0.02974475 -0.2236734 0.22852506
0001e0 60 1e 5d 3e 22 a0 17 3e d5 6f 85 be 76 bf 01 bd
       0.21593618 0.1480718 -0.26061884 -0.031676732
0001f0 8c 43 8c 3e 3c 80 9c 3b bd e0 05 be f8 dd 22 be
       0.27395284 0.004776029 -0.13074012 -0.15904987
000200 df c6 52 3d 1f 16 8e be 2e 07 89 bd 47 ee 39 3e
       0.05145919 -0.27751252 -0.066908225 0.18157302
000210 57 d5 83 3e 9a 22 5f 3e 60 9b 70 3e b4 4e 67 be
       0.25748703 0.21790543 0.23496771 -0.22588617
000220 56 9d 8d be 14 5c ce 3c ce 62 25 3e 38 43 39 be
       -0.276591 0.02519039 0.16150972 -0.18092048
000230 66 36 41 3d 85 cc 16 3e 76 93 22 be 51 c6 e2 bc
       0.04717102 0.14726456 -0.15876564 -0.027682455
000240 46 79 a5 be c8 3f a6 3d 29 da 5d 3e cd 5d a6 3d
       -0.32319087 0.08117634 0.21665253 0.0812336
000250 5b 20 5a be 61 a2 cf 3d b0 68 99 bb ae e9 51 3e
       -0.21301405 0.10138393 -0.004681669 0.20499298
000260 ea 12 7b bd 88 ee 15 be 9b d2 92 3e 78 54 81 be
       -0.061297335 -0.14641774 0.28676304 -0.25259757
000270 a4 25 83 3c 96 a7 ff 3b 1e 54 a5 be 4a ac 54 3e
       0.01600916 0.00780196 -0.3229074 0.20768848
000280 f9 b7 a0 3e 7d c3 83 be 9f eb 78 3e 70 1e 74 3e
       0.3139036 -0.25735083 0.24308632 0.23839736
000290 a4 63 8e 3d 5a 79 2c 3e 2d bb d1 3d db 6d 34 bd
       0.06952599 0.16843167 0.10240779 -0.04405008
0002a0 0d d1 81 3d 0b 9e bd bc 53 7e a0 be ee 43 62 be
       0.063387014 -0.02314665 -0.31346378 -0.22096226
0002b0 b9 b3 09 3e bc b5 df bd 0a d9 66 3e f2 ce 3a 3e
       0.13447465 -0.10923335 0.22543731 0.18243006
0002c0 c3 d3 1c be c5 1b 0e bc ac b9 1a bd 7c 2b 94 bb
       -0.15315156 -0.008673613 -0.037774727 -0.0045217853
0002d0 53 68 d5 bd 18 89 4f 3e 5e a0 3c be 7e e3 f9 bd
       -0.10420289 0.20267141 -0.1842055 -0.12201594
0002e0 5f 92 cc bd 1d fd 63 3e 50 5b e0 bb 0a e9 66 be
       -0.099888556 0.22264524 -0.006846823 -0.22549835
0002f0 0b 56 3c bd 2d 73 06 be dc 19 e7 bd ef 46 d8 bc
       -0.045980494 -0.13129874 -0.11284229 -0.026401011
000300 53 b3 4f 3e 13 74 09 be 00 1d 6d be e7 9a 87 bc
       0.2028325 -0.13423185 -0.23155594 -0.016553355
000310 91 78 36 be 70 cf 84 be 34 7d a6 bd 7e a4 ca bd
       -0.1781943 -0.25939512 -0.08129349 -0.09894656
000320 0f 7b 0f 3e 0d 20 93 be a4 98 9f 3e 15 34 22 be
       0.14011787 -0.2873539 0.31171143 -0.1584018
000330 fe f0 18 3e 0f 79 93 be a3 7e 2a 3e 84 9f a9 3d
       0.14935681 -0.28803298 0.1664987 0.08282378
000340 8b 49 a0 3d fc 30 d9 bb de 4a 97 3e 8a 5e 7c 3c
       0.07826527 -0.006628154 0.29549307 0.015403399
000350 45 1a 0d bd 19 34 8f 3e e2 ef 50 be bd 2b 06 3e
       -0.03444888 0.27969435 -0.20404008 0.13102622
000360 b0 05 11 bc 0b 54 28 be e0 2f 04 3e 04 19 cc bd
       -0.008851454 -0.1643831 0.12908888 -0.09965709
000370 8b 4f 7e bd f2 df 8f 3e e9 93 85 3d cf ec 73 be
       -0.062087577 0.28100544 0.06522352 -0.23820804
000380 40 cb 81 3e ba 3e b3 bd 8b 22 73 be ef 2f 99 3d
       0.2535038 -0.087521985 -0.23743646 0.07479846
000390 ba c4 1b be 9e 9c 83 be 72 6f 44 3e c3 8c 44 be
       -0.15211764 -0.25705427 0.19183138 -0.19194321
0003a0 e8 e1 e1 3c 97 b2 ba 3d a7 20 7a be 10 bf c7 bd
       0.02757354 0.091160946 -0.24426518 -0.09753239
0003b0 29 87 29 bd f3 e3 09 3d 8d ab 32 3e 51 27 4e 3e
       -0.041388664 0.033664655 0.17448254 0.20132186
0003c0 ce b8 08 3e b2 02 13 3b f3 02 32 be a7 57 f8 3b
       0.13351747 0.0022432026 -0.17383938 0.0075788083
0003d0 34 f3 88 3d 5c 97 33 3e 6a 4c 72 bd c0 35 88 3e
       0.06687012 0.17538208 -0.059154905 0.26603508
0003e0 94 4a 85 3e 04 a6 64 be ab a5 78 bd c8 15 38 3e
       0.2603346 -0.22328955 -0.06070487 0.17977059
0003f0 a5 ce 4c be d7 4d 89 bd 86 b1 34 be 84 b0 f4 bd
       -0.20000704 -0.067043 -0.17645845 -0.1194773
